diabetes_model.tflite (tflite, 9464 bytes, 7 tensors)

arith.constant1 f4 [16]
-0.016856406 -0.008778347 -0.005062197 -0.016878283 0.010243249 -0.010354545 -0.011424891 0.039869614
0.0 0.0 -0.018601328 0.0 0.030220684 0.020229165 -0.01459916 -0.017086387
00000000: 7216 8abc 0ed3 0fbc c9e0 a5bb 5344 8abc
00000010: 4dd3 273c 1ca6 29bc 772f 3bbc 524e 233d
00000020: 0000 0000 0000 0000 d061 98bc 0000 0000
00000030: 5e91 f73c a2b7 a53c 5131 6fbc c0f8 8bbc

arith.constant2 f4 [32]
0.0 0.0005998426 0.03429313 -0.023339903 0.01796723 0.0007937407 -0.01057315 0.0
-0.009907012 -0.013223942 -0.002295603 0.0 -0.00028780437 -0.033922095 -0.025480337 0.0
-0.026783511 0.0 -0.016235933 0.0 -0.027514903 0.023696726 0.034177706 0.05842638
0.0 -0.018268485 0.019837616 0.0 -0.0056083053 -0.016593194 0.0 0.022281602
00000000: 0000 0000 c13e 1d3a f476 0c3d 5333 bfbc
00000010: 0330 933c 0913 503a 013b 2dbc 0000 0000
00000020: 0551 22bc 3ca9 58bc d471 16bb 0000 0000
00000030: 73e4 96b9 e5f1 0abd 24bc d0bc 0000 0000
00000040: 1869 dbbc 0000 0000 3801 85bc 0000 0000
00000050: ef66 e1bc a31f c23c ecfd 0b3d 8050 6f3d
00000060: 0000 0000 caa7 95bc 7f82 a23c 0000 0000
00000070: e0c5 b7bb 73ee 87bc 0000 0000 e887 b63c

arith.constant3 f4 [64]
0.0 0.0 0.0064057107 0.0 0.0010597429 0.013425873 0.0 0.0
0.0 0.0 0.0 0.0 0.0 -0.0057421788 0.029126473 0.0
0.0 0.0 0.0 0.0 -0.015392714 -0.007363183 0.015475404 0.029035805
0.0 -0.0063846223 0.0 0.0 -0.007775572 0.0 -0.026293797 -0.022632645
0.0 0.0 0.0 0.006538874 0.00158155 0.00467239 0.0 0.0
0.0 -0.028727148 -0.03402762 0.006680347 0.0 0.0 -0.0045344657 0.0
0.011940474 -0.015088072 0.0 0.0 0.016279535 -0.028760131 0.0 -0.0379987
0.0 0.0 0.0 0.0058491975 -0.025128283 0.003605953 0.0 -0.009848558
00000000: 0000 0000 0000 0000 ffe6 d13b 0000 0000
00000010: 12e7 8a3a 31f8 5b3c 0000 0000 0000 0000
00000020: 0000 0000 0000 0000 0000 0000 0000 0000
00000030: 0000 0000 e328 bcbb a49a ee3c 0000 0000
00000040: 0000 0000 0000 0000 0000 0000 0000 0000
00000050: b931 7cbc db46 f1bb 8d8c 7d3c 7fdc ed3c
00000060: 0000 0000 1836 d1bb 0000 0000 0000 0000
00000070: 3aca febb 0000 0000 1766 d7bc 1968 b9bc
00000080: 0000 0000 0000 0000 0000 0000 0d44 d63b
00000090: 034c cf3a d91a 993b 0000 0000 0000 0000
000000a0: 0000 0000 3255 ebbc 8c60 0bbd d0e6 da3b
000000b0: 0000 0000 0000 0000 db95 94bb 0000 0000
000000c0: faa1 433c f633 77bc 0000 0000 0000 0000
000000d0: a95c 853c 5e9a ebbc 0000 0000 86a4 1bbd
000000e0: 0000 0000 0000 0000 0000 0000 a0aa bf3b
000000f0: d4d9 cdbc da51 6c3b 0000 0000 d95b 21bc

arith.constant4 f4 [1, 16]
0.0019481103 0.5290246 0.046901483 0.49811718 -0.14557964 0.3722165 -0.4423349 0.680755
-0.4225393 -0.27474916 0.5007711 -0.49243978 0.24181023 -0.30391857 0.48965472 0.27377498
00000000: bc57 ff3a 286e 073f c51b 403d 3709 ff3e
00000010: d412 15be 2993 be3e b879 e2be f645 2e3f
00000020: 1257 d8be ecab 8cbe 8932 003f 1121 fcbe
00000030: 1a9d 773e 379b 9bbe 06b4 fa3e 3c2c 8c3e

arith.constant5 f4 [16, 32]
0.352971 -0.34488735 0.28486887 0.030420132 0.118635975 0.263921 0.14029254 0.050160736
0.27779254 0.13012128 -0.01065967 -0.26227307 -0.12713555 0.2283202 -0.23533064 0.25226113
0.29487634 -0.08946589 -0.16319562 -0.26058182 -0.05993871 0.25372452 -0.16609798 0.03995787
0.0729911 -0.18883523 -0.30009198 -0.3213311 -0.25890854 -0.10025832 0.16193113 -0.08662041
0.17351285 -0.22381051 0.21246932 -0.3856741 -0.11991293 0.35109276 0.2610853 0.05256462
-0.11776669 -0.20502934 0.32886204 -0.2534479 -0.16385983 -0.12354669 -0.22937052 -0.06333399
0.04701998 -0.18585975 0.26635966 -0.1643073 0.1499089 0.034137264 0.30601782 0.20161079
-0.34820697 0.3130601 0.08637408 0.081395924 0.14713356 0.020804737 0.21807799 -0.3286671
-0.23223208 -0.30442035 0.082870886 -0.0047175586 -0.108350396 0.3577803 -0.07385691 0.09826252
-0.37086645 0.11677145 0.18112412 -0.213946 -0.06941273 0.25660515 -0.41210982 -0.18647316
0.26873007 -0.13103843 0.09862826 0.31080696 0.3193668 0.16447598 -0.28075516 0.11176061
0.097252846 -0.27446917 -0.16656695 -0.25515145 0.03471123 0.31754586 0.042532563 -0.16740169
0.2553436 -0.052289907 0.07402626 0.26792255 -0.1478226 0.22727549 -0.2668214 0.3515865
-0.010551856 -0.34563586 0.03603864 0.26893845 -0.062309947 0.24422038 -0.017710682 0.16049138
-0.3236137 -0.022490054 -0.20378985 0.34215227 0.09673048 -0.15671118 -0.166752 0.13409364
-0.33870926 -0.10801233 0.32610783 -0.14845747 -0.33893213 0.2726604 -0.254724 -0.16863465
0.18790027 -0.02109166 0.17575365 0.20991208 0.15371466 0.12335049 -0.0676576 -0.3131906
0.18937398 0.22343689 0.27275062 0.27438483 -0.2686384 0.3467194 0.38118058 0.30304572
0.24984182 0.10851827 0.3070241 -0.24108317 0.1707591 0.07948362 -0.27283743 0.2834877
0.21328542 0.32377014 0.25902924 0.023342878 0.4355032 -0.007308162 0.30587432 0.31724072
-0.18724158 -0.16822246 0.19065553 -0.28150848 0.081339315 0.33902338 0.31011194 -0.24567246
-0.085807554 0.2657308 0.2351762 0.25758937 -0.13109383 0.10101458 0.120656975 0.20461074
-0.2503813 -0.13704883 0.035810478 -0.3249474 0.23041466 -0.22588973 0.1630485 -0.09662646
0.1579518 0.055433262 -0.3388287 -0.056601793 0.23381948 -0.040431965 -0.06411648 -0.31022084
-0.27190736 -0.15804224 -0.11154881 0.0077468455 0.030664083 -0.04410837 -0.28205478 -0.06631091
-0.0034590543 0.23212938 -0.3629835 0.033355266 0.29968277 -0.14597102 -0.33396798 -0.29680216
-0.069151945 0.33709446 -0.35154757 -0.3375525 0.005751859 0.32671422 -0.037828475 0.09718697
-0.19430497 -0.15409444 0.18220872 0.2676309 -0.05747515 0.08581686 0.057772964 -0.24248353
-0.22426844 -0.15214878 0.253619 -0.26423404 0.072956674 0.42809746 -0.07154974 0.18965855
0.12893742 -0.09562584 -0.2610228 0.24356923 -0.04072038 -0.23170117 -0.20270246 0.28760526
-0.36119485 0.1785402 -0.10452738 0.07348606 -0.20209146 0.10119468 0.0318929 -0.003583045
0.20493516 0.27068487 0.29058275 0.18181959 -0.41864687 0.07334965 -0.11734854 0.32845062
00000000: 9db8 b43e 1395 b0be 55da 913e a433 f93c
00000010: 6bf7 f23d a720 873e d9a8 0f3e 5875 4d3d
00000020: d33a 8e3e 833e 053e e6a5 2ebc a848 86be
00000030: d22f 02be c5cc 693e 84fa 70be 5f28 813e
00000040: 08fa 963e e439 b7bd c11c 27be fb6a 85be
00000050: 4b82 75bd 2ee8 813e 9715 2abe ddaa 233d
00000060: 5c7c 953d 065e 41be a8a5 99be 8385 a4be
00000070: a98f 84be 3c54 cdbd 46d1 253e 0b66 b1bd
00000080: 5aad 313e 952e 65be 8f91 593e 1377 c5be
00000090: e994 f5bd 6ec2 b33e f9ac 853e 004e 573d
000000a0: aa2f f1bd 36f3 51be 9b60 a83e ecc3 81be
000000b0: dfca 27be 0c06 fdbd 1be0 6abe 40b5 81bd
000000c0: 0698 403d 0552 3ebe 4b60 883e 2c40 28be
000000d0: b881 193e 84d3 0b3d 5eae 9c3e 0f73 4e3e
000000e0: 2f48 b2be 6a49 a03e e5e4 b03d e8b2 a63d
000000f0: 2eaa 163e b26e aa3c d64f 5f3e 0e47 a8be
00000100: 3fce 6dbe fcdc 9bbe 36b8 a93d c095 9abb
00000110: d0e6 ddbd fb2e b73e 4b42 97bd dc3d c93d
00000120: 35e2 bdbe df25 ef3d 9a78 393e a914 5bbe
00000130: 4328 8ebd c061 833e 0f00 d3be d2f2 3ebe
00000140: fd96 893e f02e 06be 9dfd c93d 1722 9f3e
00000150: 0c84 a33e 646c 283e 24bf 8fbe bfe2 e43d
00000160: 802c c73d 3987 8cbe 8790 2abe 36a3 82be
00000170: 5d2d 0e3d 5f95 a23e a036 2e3d 596b 2bbe
00000180: 65bc 823e f12d 56bd 149b 973d 252d 893e
00000190: cf5e 17be e8ba 683e d19c 88be 2503 b43e
000001a0: b1e1 2cbc 2ff7 b0be 419d 133d 4db2 893e
000001b0: b738 7fbd e814 7a3e fe15 91bc da57 243e
000001c0: b2b0 a5be 103d b8bc 49ae 50be 952e af3e
000001d0: a11a c63d e578 20be 09c1 2abe d84f 093e
000001e0: 4d6b adbe 9235 ddbd 9bf7 a63e 3c05 18be
000001f0: 8388 adbe 259a 8b3e 2f6b 82be 90ae 2cbe
00000200: ee68 403e 6bc8 acbc c4f8 333e 31f3 563e
00000210: 6067 1d3e 2f9f fc3d 1190 8abd 855a a0be
00000220: 41eb 413e a4cc 643e f8a5 8b3e 2b7c 8c3e
00000230: f98a 89be 3585 b13e 1a2a c33e cf28 9b3e
00000240: 89d6 7f3e d43e de3d 4332 9d3e 82de 76be
00000250: 79db 2e3e 4fc8 a23d 59b1 8bbe 4d25 913e
00000260: 7e67 5a3e 33c5 a53e 7b9f 843e 9039 bf3c
00000270: 47fa de3e 4e79 efbb 8f9b 9c3e 606d a23e
00000280: 42bc 3fbe 8242 2cbe 343b 433e e121 90be
00000290: 3a95 a63d 7994 ad3e fec6 9e3e 9091 7bbe
000002a0: dfbb afbd de0d 883e 08d2 703e c1e2 833e
000002b0: 763d 06be bbe0 ce3d 011b f73d 7a85 513e
000002c0: fa31 80be 8756 0cbe 02ae 123d 815f a6be
000002d0: d2f1 6b3e a34f 67be 30f6 263e 18e4 c5bd
000002e0: 1ebe 213e fd0d 633d f57a adbe 48d7 67bd
000002f0: 606e 6f3e fd9b 25bd 804f 83bd 44d5 9ebe
00000300: 7137 8bbe d3d5 21be b473 e4bd 40d9 fd3b
00000310: 3e33 fb3c faaa 34bd 7c69 90be 04ce 87bd
00000320: 4db1 62bb 53b3 6d3e f9d8 b9be 889f 083d
00000330: 0570 993e 6d79 15be dafd aabe 74f6 97be
00000340: 899f 8dbd a597 ac3e 0bfe b3be aed3 acbe
00000350: 177a bc3b 1647 a73e 08f2 1abd f609 c73d
00000360: e2f7 46be efca 1dbe ec94 3a3e eb06 893e
00000370: 106b 6bbd c0c0 af3d 58a3 6c3d 9a4d 78be
00000380: a0a6 65be e4cc 1bbe 59da 813e af49 87be
00000390: 4f6a 953d 972f db3e ac88 92bd da35 423e
000003a0: 2c08 043e 7bd7 c3bd c8a4 85be 366a 793e
000003b0: 6aca 26bd 1243 6dbe 3c91 4fbe ff40 933e
000003c0: 88ee b8be 3ed3 363e 7312 d6bd dc7f 963d
000003d0: 10f1 4ebe 283f cf3d 21a2 023d 85d1 6abb
000003e0: 86da 513e 3597 8a3e 43c7 943e ea2e 3a3e
000003f0: e258 d6be 5738 963d 6e54 f0bd ae2a a83e

tfl.pseudo_qconst i1 [32, 64]
70 -64 -19 -59 3 62 29 8
4 94 16 105 123 -108 -24 -72
-18 -44 122 69 -61 -2 65 -26
-76 26 12 -101 -105 -63 94 38
-11 -19 -3 -58 -81 -44 -39 -40
16 -11 111 68 -127 65 86 -95
-56 -2 -38 77 20 -62 -12 -69
-95 120 -45 7 75 2 -38 80
94 87 -96 109 71 -44 95 -84
-3 -1 -113 -57 -31 -67 106 50
29 35 -74 -8 9 44 4 57
-59 -54 47 -71 -2 -35 85 -46
-100 -109 -115 -41 -117 19 -74 -45
-106 -55 -57 -4 -83 49 105 112
65 -16 17 -7 127 41 -49 -30
62 -81 -43 -18 -77 41 54 -75
-89 -35 126 51 -30 -18 -44 76
-20 -31 106 -13 -114 44 113 -74
-105 28 -50 25 -71 86 53 40
35 92 25 94 -73 87 -127 8
-107 -111 46 11 -48 102 -111 -8
105 -87 15 103 49 -39 -81 -6
-64 2 -46 -80 44 -31 -66 -60
79 -71 -106 103 119 12 40 -86
-22 7 71 76 75 -95 -89 89
25 13 -77 88 -13 24 -62 90
-70 93 2 65 -50 -65 28 19
-49 -20 54 -32 103 -51 72 71
82 0 20 -48 -47 -17 62 -90
-48 75 -12 30 48 76 10 29
-3 -36 -3 -41 127 15 -28 41
69 -95 51 -37 -36 -47 87 9
00000000: 46c0 edc5 033e 1d08 045e 1069 7b94 e8b8
00000010: eed4 7a45 c3fe 41e6 b41a 0c9b 97c1 5e26
00000020: f5ed fdc6 afd4 d9d8 10f5 6f44 8141 56a1
00000030: c8fe da4d 14c2 f4bb a178 d307 4b02 da50
00000040: 5e57 a06d 47d4 5fac fdff 8fc7 e1bd 6a32
00000050: 1d23 b6f8 092c 0439 c5ca 2fb9 fedd 55d2
00000060: 9c93 8dd7 8b13 b6d3 96c9 c7fc ad31 6970
00000070: 41f0 11f9 7f29 cfe2 3eaf d5ee b329 36b5
00000080: a7dd 7e33 e2ee d44c ece1 6af3 8e2c 71b6
00000090: 971c ce19 b956 3528 235c 195e b757 8108
000000a0: 9591 2e0b d066 91f8 69a9 0f67 31d9 affa
000000b0: c002 d2b0 2ce1 bec4 4fb9 9667 770c 28aa
000000c0: ea07 474c 4ba1 a759 190d b358 f318 c25a
000000d0: ba5d 0241 cebf 1c13 cfec 36e0 67cd 4847
000000e0: 5200 14d0 d1ef 3ea6 d04b f41e 304c 0a1d
000000f0: fddc fdd7 7f0f e429 45a1 33db dcd1 5709

functional_3_1/dense_12_1/MatMul i1 [64, 18]
-50 -125 109 12 63 32 -35 -127
-12 -52 -73 64 9 -9 -92 -9
-58 23 -89 -2 98 -70 -51 -84
-48 -44 -44 77 52 -35 106 95
127 9 11 -9 33 -58 -22 83
22 -10 -16 -44 56 -59 48 3
108 59 8 57 67 127 -85 -120
-108 -119 -37 93 21 -85 27 -127
-25 93 -106 78 67 8 118 110
46 -81 6 116 -30 -28 -58 67
-28 -38 3 -120 127 6 -13 -45
31 21 15 -80 -15 127 -29 -40
-22 59 19 -95 106 19 10 -66
-73 -53 35 12 -32 127 7 -91
-86 -120 -35 -119 -115 22 -84 -96
-6 13 117 63 -88 -59 -80 -127
61 -56 -11 13 10 -50 43 88
72 -16 -64 -95 -92 68 -125 -81
-43 49 100 -65 -54 -122 12 80
20 -59 -72 77 -49 -63 127 -79
9 -127 -38 47 70 -21 -33 -71
47 41 93 56 117 -15 56 -1
-33 35 127 37 -33 124 62 -127
97 57 123 71 -75 49 73 -121
9 -67 -107 79 5 -116 -50 127
-79 40 -43 -76 93 -107 -118 -1
-52 63 36 -8 -52 44 -71 3
-108 46 -61 61 -6 -127 79 -48
111 114 -21 -106 -72 -84 78 -72
-81 108 47 60 102 127 -29 94
-110 82 72 -5 -34 -55 63 54
-29 -116 28 33 93 -28 87 -10
00000000: ce83 6d0c 3f20 dd81 f4cc b740 09f7 a4f7
00000010: c617 a7fe 62ba cdac d0d4 d44d 34dd 6a5f
00000020: 7f09 0bf7 21c6 ea53 16f6 f0d4 38c5 3003
00000030: 6c3b 0839 437f ab88 9489 db5d 15ab 1b81
00000040: e75d 964e 4308 766e 2eaf 0674 e2e4 c643
00000050: e4da 0388 7f06 f3d3 1f15 0fb0 f17f e3d8
00000060: ea3b 13a1 6a13 0abe b7cb 230c e07f 07a5
00000070: aa88 dd89 8d16 aca0 fa0d 753f a8c5 b081
00000080: 3dc8 f50d 0ace 2b58 48f0 c0a1 a444 83af
00000090: d531 64bf ca86 0c50 14c5 b84d cfc1 7fb1
000000a0: 0981 da2f 46eb dfb9 2f29 5d38 75f1 38ff
000000b0: df23 7f25 df7c 3e81 6139 7b47 b531 4987
000000c0: 09bd 954f 058c ce7f b128 d5b4 5d95 8aff
000000d0: cc3f 24f8 cc2c b903 942e c33d fa81 4fd0
000000e0: 6f72 eb96 b8ac 4eb8 af6c 2f3c 667f e35e
000000f0: 9252 48fb dec9 3f36 e38c 1c21 5de4 57f6
